2021-08-31 12:01:23,039: Using device: cuda:0
2021-08-31 12:01:23,260: Using LR scheduler: {'step_size': 5, 'gamma': 0.8}
2021-08-31 12:01:27,241: Net(
  (FQA_block): FQA(
    (fqa_layers): ModuleList(
      (0): FQALayer(
        (relu): ReLU()
        (sigmoid): Sigmoid()
        (k_gen): Sequential(
          (0): Linear(in_features=136, out_features=32, bias=True)
          (1): Reshape(out_shape=(8, 4))
        )
        (q_gen): Sequential(
          (0): Linear(in_features=136, out_features=32, bias=True)
          (1): Reshape(out_shape=(8, 4))
        )
        (vy_gen): Sequential(
          (0): Linear(in_features=34, out_features=41, bias=True)
          (1): ReLU()
          (2): Linear(in_features=41, out_features=48, bias=True)
          (3): ReLU()
          (4): Reshape(out_shape=(8, 6))
        )
        (vn_gen): Sequential(
          (0): Linear(in_features=34, out_features=41, bias=True)
          (1): ReLU()
          (2): Linear(in_features=41, out_features=48, bias=True)
          (3): ReLU()
          (4): Reshape(out_shape=(8, 6))
        )
        (concat): Reshape(out_shape=(48,))
        (att_gen): Linear(in_features=48, out_features=32, bias=True)
        (compress_att): Linear(in_features=32, out_features=32, bias=True)
      )
    )
  )
  (vel_predictor): VelPredictor(
    (relu): ReLU()
    (lin_in1): Linear(in_features=66, out_features=48, bias=True)
    (lin_in2): Linear(in_features=48, out_features=32, bias=True)
    (lin_out1): Linear(in_features=32, out_features=16, bias=True)
    (lin_out2): Linear(in_features=16, out_features=2, bias=True)
  )
  (rnn_cell): LSTMCell(2, 32)
)
2021-08-31 12:01:27,242: Number of parameters: 28256
2021-08-31 12:01:27,244: Using dataset: data/apolloscape/dataset.py
2021-08-31 12:01:27,498: Loading training data...
2021-08-31 12:01:27,966:   Training set size: 3131
2021-08-31 12:01:27,966: Loading test data...
2021-08-31 12:01:28,015:   Test set size: 470
2021-08-31 12:01:28,015: Loading validation data...
…
